models/navier_stokes_pinn.pth (torch, 36242 bytes, 10 tensors)

network.0.weight f4 [50, 4]
-0.14053378 0.6234483 -0.28034833 0.20911308 0.3979906 0.54249376 -0.39402932 -0.010651229
-0.44840193 -0.2815525 0.26119423 -0.2109697 -0.5454559 0.37664282 -0.15190513 0.15276246
-0.19269037 -0.1939578 -0.74966365 0.06337995 0.14724499 -0.43297866 -0.2848754 -1.2806251
-0.45754904 0.11923437 -0.034747403 0.64080226 -0.15146835 0.50385255 -0.36974296 -0.28836498
0.28495592 -0.47718847 0.536728 0.11517938 0.57433355 0.6560703 0.6839036 0.285651
0.120870195 0.35947105 -0.32310295 0.34089977 0.33256575 -0.15457271 -0.33028972 0.6529538
0.34124434 0.39059395 0.18214495 0.16960713 -0.3684802 0.41647348 0.41631988 -0.43083146
0.3117902 -0.4668703 0.5413676 -0.29833913 -0.048646253 0.17844994 -0.28812736 -0.1448418
0.044524305 -0.5118846 -0.38380584 0.36363858 -0.58164865 0.061269023 0.53486675 1.5900955
0.022680607 0.33739316 -0.29600924 -0.12491262 -0.4928551 -0.4799975 -0.44133955 0.18697983
0.04292623 0.05010885 0.36651012 -1.1408452 0.36792406 0.20462313 -0.50659424 -0.031565048
-0.3475678 -0.24694511 -0.29908898 0.5186045 0.32075047 -0.41471648 0.4868459 -0.16762584
-0.2650156 0.642311 -0.618478 0.039934758 -0.18455446 -0.23049332 0.33924 0.31605017
0.11847168 0.35628116 0.46525127 -0.044686258 0.43061528 0.34814432 -0.5862454 -0.2683168
-0.026089927 0.014758782 -0.4316033 -0.83260083 -0.0018491 -0.5139057 -0.16839992 -0.5761523
-0.30418065 0.1643691 0.47439766 -0.6593926 -0.01008563 0.46571678 0.44084233 0.42231122
0.15094362 -0.45692292 -0.3590014 0.31628442 -0.044004273 0.48157093 0.58865243 -0.22261441
-0.22632311 -0.43758032 -0.06221435 0.37240475 -0.3325107 0.5427333 0.19478396 -0.6042002
-0.5338468 -0.10237491 -0.11261874 -0.6774093 -0.5580634 0.41396484 -0.5251292 -0.10747129
-0.059051454 -0.28223813 -0.015323557 -0.4796961 -0.52328277 -0.6140406 0.28402486 -0.49201316
0.2776137 0.36747468 -0.26544076 0.44320974 -0.2656985 0.23165424 -0.63159686 -0.24176253
-0.29439545 -0.6875975 0.054440953 -0.33372775 0.16044511 -0.23768131 -0.43029028 0.34685165
-0.63935006 0.063014016 0.49087608 -0.21056733 -0.13425542 -0.18040025 -0.37730885 0.35818392
-0.6973304 -0.67718333 -0.5514144 -0.58465856 0.37865648 -0.55895615 -0.26741073 0.39945966
-0.11183279 -0.09612315 0.19143213 -0.17004906 0.624029 0.10358508 -0.0918118 -0.46091613
00000000: 16e8 0fbe 4f9a 1f3f d189 8fbe bd21 563e
00000010: 6dc5 cb3e dfe0 0a3f 36be c9be 7e82 2ebc
00000020: f094 e5be a627 90be 40bb 853e 7108 58be
00000030: ffa2 0bbf 54d7 c03e 058d 1bbe c36d 1c3e
00000040: a050 45be e09c 46be f5e9 3fbf 59cd 813d
00000050: 64c7 163e 61af ddbe 30db 91be 86eb a3bf
00000060: de43 eabe 2631 f43d 4b53 0ebd 9e0b 243f
00000070: 851a 1bbe 7bfc 003f f34e bdbe 93a4 93be
00000080: bee5 913e 0c52 f4be 0267 093f 2be3 eb3d
00000090: 8607 133f 39f4 273f 4e14 2f3f d940 923e
000000a0: cb8a f73d 970c b83e c06d a5be 6a8a ae3e
000000b0: 0f46 aa3e 4f48 1ebe bc1b a9be fb27 273f
000000c0: 94b7 ae3e eefb c73e 3584 3a3e 7ead 2d3e
000000d0: 70a9 bcbe 033c d53e e127 d53e f195 dcbe
000000e0: f7a2 9f3e a009 efbe 1197 0a3f e8bf 98be
000000f0: 4b41 47bd 95bb 363e 6e85 93be 6951 14be
00000100: 1e5f 363d df0a 03bf 3382 c4be d62e ba3e
00000110: ede6 14bf 3af5 7a3d 07ed 083f 4088 cb3f
00000120: aecc b93c ccbe ac3e 868e 97be 30d2 ffbd
00000130: 8157 fcbe 3bc2 f5be 42f7 e1be a477 3f3e
00000140: 6ad3 2f3d f03e 4d3d 37a7 bb3e 3707 92bf
00000150: 8b60 bc3e ba88 513e 29b0 01bf 5a4a 01bd
00000160: 68f4 b1be 2edf 7cbe 3122 99be 44c3 043f
00000170: 6839 a43e b855 d4be de43 f93e 1ca6 2bbe
00000180: 20b0 87be 7e6e 243f 9354 1ebf a192 233d
00000190: d8fb 3cbe 7106 6cbe deb0 ad3e 54d1 a13e
000001a0: 48a1 f23d 7c6a b63e 6a35 ee3e f008 37bd
000001b0: 9b79 dc3e f93f b23e 2e14 16bf d260 89be
000001c0: 8bba d5bc d2ce 713c 1cfb dcbe 5425 55bf
000001d0: 805d f2ba 538f 03bf 0771 2cbe b87e 13bf
000001e0: 91bd 9bbe 6050 283e 40e4 f23e f4cd 28bf
000001f0: 333e 25bc 6e72 ee3e 16b6 e13e 2d39 d83e
00000200: f790 1a3e cdf1 e9be 08cf b7be 08f0 a13e
00000210: d33d 34bd 7790 f63e edb1 163f 08f5 63be
00000220: 3fc1 67be 870a e0be 79d4 7ebd d6ab be3e
00000230: d83e aabe 92f0 0a3f 7275 473e ddac 1abf
00000240: 2faa 08bf f0a9 d1bd a7a4 e6bd b26a 2dbf
00000250: 3edd 0ebf 33f3 d33e de6e 06bf e819 dcbd
00000260: f0df 71bd 8481 90be a80f 7bbc ba9a f5be
00000270: dcf5 05bf c431 1dbf b56b 913e 26e9 fbbe
00000280: 6223 8e3e a425 bc3e dae7 87be 63ec e23e
00000290: a209 88be c536 6d3e 55b0 21bf 9990 77be
000002a0: 00bb 96be 6406 30bf 7afd 5e3d 5dde aabe
000002b0: b94b 243e bb62 73be 024f dcbe 8a96 b13e
000002c0: 72ac 23bf 7e0d 813d 1c54 fb3e f69e 57be
000002d0: 417a 09be d8ba 38be a02e c1be e263 b73e
000002e0: 3f84 32bf e35b 2dbf 7e29 0dbf 2fac 15bf
000002f0: 43df c13e c017 0fbf 0fea 88be fa85 cc3e
00000300: 9708 e5bd 37dc c4bd c906 443e 5721 2ebe
00000310: 5dc0 1f3f 6a24 d43d d307 bcbd 33fd ebbe

network.0.bias f4 [50]
0.0026652694 -0.3923055 0.2489666 -0.23056242 0.49375767 0.014887304 -0.5187028 0.2403694
0.3752891 0.06841772 -0.10883001 -0.25440413 -0.21997254 -0.62385607 0.056768157 0.20560354
0.24159539 0.49500668 -0.5308048 0.14014724 -0.3883716 0.17868975 0.10652986 -0.18103671
-0.4663102 0.4492991 -0.29392108 0.18205087 0.3422746 0.0070815324 -0.3039204 -0.47983673
0.26257405 0.010228236 -0.4281788 0.091653906 0.42433602 -0.087868206 0.41155276 -0.16491443
-0.25623307 0.08929535 -0.18252373 0.3457549 -0.5340943 0.25110155 -0.3724748 0.20512867
0.20260347 0.2716839
00000000: cdab 2e3b 44dc c8be 1af1 7e3e 8e18 6cbe
00000010: cecd fc3e e1e9 733c b5c9 04bf 6523 763e
00000020: e525 c03e 971e 8c3d 45e2 debd 4241 82be
00000030: 7b40 61be 08b5 1fbf ba85 683d bc89 523e
00000040: c864 773e 8471 fd3e d3e2 07bf c282 0f3e
00000050: a4d8 c6be 72fa 363e 542c da3d b061 39be
00000060: 36c0 eebe 880a e63e d37c 96be 8b6b 3a3e
00000070: 9e3e af3e 330c e83b 749b 9bbe 29ad f5be
00000080: 1b70 863e 5594 273c 403a dbbe 0bb5 bb3d
00000090: 9242 d93e 3ff4 b3bd 0bb7 d23e 54df 28be
000000a0: fb30 83be 7be0 b63d 80e7 3abe c906 b13e
000000b0: 67ba 08bf 6290 803e 04b5 bebe 400d 523e
000000c0: 4977 4f3e 271a 8b3e

network.2.weight f4 [50, 50]
-0.03588613 -0.25483745 0.18159081 -0.16821465 -0.31348372 -0.056121748 0.057803266 -0.0627455
0.3423435 0.15943074 -0.25231642 -0.22475444 0.11776259 0.14174812 0.32383686 -0.2899591
-0.037855577 0.037085388 0.04783699 -0.15202086 0.023230676 -0.29312748 -0.15426712 0.21685682
-0.39332667 0.17983608 0.25026563 -0.28188127 -0.46686187 0.011393445 0.15761273 0.20342508
-0.1468493 0.28045404 0.038501788 -0.03242182 -0.18690567 -0.22417277 0.11758404 0.01706988
-0.16802673 -0.42065084 -0.03610482 -0.013314677 0.06303035 -0.08117859 -0.17852055 -0.13030331
0.049466755 -0.09761129 -0.011325654 -0.01947184 -0.062151432 -0.057355523 0.57324195 0.12692896
-0.15135211 0.10985796 0.093627 0.18546674 -0.05430061 -0.22415057 -0.21952593 -0.26285356
-0.025083913 0.2643024 0.027457004 -0.022689458 0.038179774 0.1114821 -0.17879044 0.27753785
0.13374652 -0.10384248 0.04530582 -0.02106821 -0.2226427 0.27095878 0.50956917 0.059733268
-0.16931832 -0.4110478 0.18628496 -0.06296195 -0.19733994 0.086937346 0.120886624 0.15549229
0.45652577 -0.21657805 0.042889252 0.20500694 -0.13094151 0.15230267 -0.2964571 0.15608548
-0.121726714 -0.06484122 -0.03384398 0.0108430805 0.33514342 0.055699863 -0.2120696 0.017953837
0.25104925 0.09223579 -0.10784514 0.6583196 -0.103226356 0.12076519 0.2612501 -0.053665634
-0.024271911 -0.17896043 -0.47026 0.76312566 -0.04647348 -0.11087349 0.018659258 -0.174159
-0.3530071 0.3022459 0.060332656 -0.5354589 0.2647583 -0.06040905 -0.09893571 0.2950189
0.74777305 -0.07331025 -0.24430123 -0.20364712 -0.08974823 0.11150309 -0.23470692 0.2809904
0.20402433 0.25038627 -0.00092873286 -0.41527057 0.17669894 0.3381642 -0.30841622 0.34898204
-0.485025 0.32448068 -0.1361504 -0.06916309 0.05170469 0.010216454 -0.11353075 -0.1947056
0.24437977 -0.13115239 0.2852309 -0.068189755 -0.20447156 -0.035091568 0.26946896 -0.14404188
-0.21363035 0.05663256 -0.22790727 -0.45824116 0.031471636 0.04474325 0.36112142 0.16158718
-0.3779957 0.25523686 -0.22217284 0.05407426 0.1384847 0.09672088 -0.15504558 0.37297285
-0.38876432 0.102385044 0.42316297 -0.023229122 -0.29369634 -0.55869776 0.36996534 -0.025402438
0.09556469 -0.09369309 0.10752869 0.044541966 0.74811536 -0.06873719 -0.4048648 -0.077725455
-0.16069609 0.46227777 -0.24740751 0.42505762 -0.056994297 0.30821112 0.17147651 -0.015445162
-0.364705 -0.1309841 -0.08142722 -0.19159831 -0.03553952 0.1990613 -0.11029854 -0.10324514
0.16985062 -0.20571418 -0.027441751 0.13299581 -0.037621856 0.014289584 0.15376447 -0.03056322
-0.117389604 0.05214124 -0.13754584 -0.11896765 0.032700505 -0.112366274 -0.12301562 0.21604788
0.10345299 -0.04341389 -0.05217263 0.061057728 0.03684101 0.25926846 0.010244567 -0.1951249
-0.0832494 -0.06554449 0.14393875 0.04184184 -0.13391934 -0.1969248 0.12580396 0.2653636
-0.040215515 -0.10922361 0.16717915 0.018891132 -0.10904385 -0.22173664 0.007550691 0.10644086
0.11232503 -0.03709164 0.0037237683 -0.08838889 0.09689359 0.0032344982 -0.1837869 -0.07902952
00000000: 56fd 12bd 0e7a 82be f1f2 393e 7640 2cbe
00000010: f080 a0be ebdf 65bd 1ec3 6c3d b680 80bd
00000020: a647 af3e d041 233e 9e2f 81be 0726 66be
00000030: 832d f13d 6b26 113e f2cd a53e 8575 94be
00000040: 730e 1bbd d9e6 173d b8f0 433d 5bab 1bbe
00000050: 424e be3c ce14 96be 33f8 1dbe b70f 5e3e
00000060: 1d62 c9be f326 383e d122 803e be52 90be
00000070: 8508 efbe 92ab 3a3c 3b65 213e aa4e 503e
00000080: aa5f 16be ac97 8f3e 0db4 1d3d becc 04bd
00000090: 3364 3fbe 8c8d 65be e7cf f03d 22d6 8b3c
000000a0: 330f 2cbe 8c5f d7be a6e2 13bd ce25 5abc
000000b0: 0e16 813d f640 a6bd 17ce 36be 3b6e 05be
000000c0: a79d 4a3d 6ee8 c7bd 3c8f 39bc 6883 9fbc
000000d0: 8092 7ebd a0ed 6abd fcbf 123f aaf9 013e
000000e0: 0cfc 1abe 36fd e03d 83bf bf3d feea 3d3e
000000f0: 516a 5ebd ba87 65be 68cb 60be be94 86be
00000100: c77c cdbc a552 873e 83ed e03c 3edf b9bc
00000110: 6562 1c3d ba50 e43d d714 37be 7119 8e3e
00000120: d9f4 083e 5eab d4bd 9892 393d 3d97 acbc
00000130: 73fc 63be 1cbb 8a3e 2073 023f dfaa 743d
00000140: c861 2dbe db74 d2be 7cc1 3e3e 32f2 80bd
00000150: 7b13 4abe 350c b23d 6893 f73d 5f39 1f3e
00000160: bfbd e93e a3c6 5dbe a4ac 2f3d 57ed 513e
00000170: 8815 06be 3bf5 1b3e 3ac9 97be dfd4 1f3e
00000180: db4b f9bd 79cb 84bd fc9f 0abd 2da7 313c
00000190: eb97 ab3e 8a25 643d c628 59be ed13 933c
000001a0: 8789 803e 1ee6 bc3d eadd dcbd a287 283f
000001b0: 5768 d3bd bd53 f73d 93c2 853e 7fd0 5bbd
000001c0: e3d5 c6bc 6741 37be ebc5 f0be 345c 433f
000001d0: fa5a 3ebd a411 e3bd 4ddb 983c bd56 32be
000001e0: 59bd b4be f9bf 9a3e 601f 773d d613 09bf
000001f0: 668e 873e 7b6f 77bd ce9e cabd b80c 973e
00000200: 0e6e 3f3f af23 96bd 1a2a 7abe df88 50be
00000210: eccd b7bd bb5b e43d 0357 70be f9dd 8f3e
00000220: c1eb 503e a132 803e 3576 73ba 589e d4be
00000230: 91f0 343e dc23 ad3e bbe8 9dbe c6ad b23e
00000240: 3255 f8be 5522 a63e 036b 0bbe 61a5 8dbd
00000250: 4cc8 533d ea62 273c cf82 e8bd e860 47be
00000260: b13e 7a3e d04c 06be c909 923e 12a7 8bbd
00000270: fe60 51be 2dbc 0fbd d6f7 893e b77f 13be
00000280: eac1 5abe 8bf7 673d 8660 69be 969e eabe
00000290: 67e8 003d b344 373d e8e4 b83e 1c77 253e
000002a0: a788 c1be 68ae 823e 4781 63be f97c 5d3d
000002b0: efce 0d3e 9915 c63d 45c4 1ebe 4cf6 be3e
000002c0: 1e0c c7be 40af d13d d1a8 d83e 004b bebc
000002d0: 5e5f 96be d106 0fbf 196c bd3e c618 d0bc
000002e0: 6cb7 c33d 2ae2 bfbd 0038 dc3d a371 363d
000002f0: 7d84 3f3f 15c6 8cbd 704a cfbe 862e 9fbd
00000300: 848d 24be acaf ec3e 6558 7dbe 27a1 d93e
00000310: da72 69bd d9cd 9d3e 8a97 2f3e b40d 7dbc
00000320: 9dba babe b220 06be 50c3 a6bd 5932 44be
00000330: e391 11bd bad6 4b3e 33e4 e1bd 3072 d3bd
00000340: 52ed 2d3e bda6 52be 86cd e0bc 0e30 083e
00000350: 6019 1abd dc1e 6a3c 6f74 1d3e b85f fabc
00000360: f669 f0bd 0e92 553d d1d8 0cbe 50a5 f3bd
00000370: f7f0 053d 4a20 e6bd 9def fbbd a83b 5d3e
00000380: 29df d33d c3d2 31bd f8b2 55bd ab17 7a3d
00000390: 99e6 163d d6be 843e d4d8 273c d2ce 47be
000003a0: a97e aabd 313c 86bd ae64 133e 5962 2b3d
000003b0: 2722 09be a8a6 49be c1d2 003e bddd 873e
000003c0: 06b9 24bd a1b0 dfbd 0331 2b3e 93c1 9a3c
000003d0: 6252 dfbd ee0e 63be c96b f73b aafd d93d
000003e0: aa0a e63d 67ed 17bd 770a 743b 3c05 b5bd
000003f0: 2670 c63d e0f9 533b a232 3cbe 3bda a1bd

network.2.bias f4 [50]
-0.016970705 0.09607708 0.23710495 0.2988167 -0.09031678 0.06919663 -0.031043882 -0.04745416
0.018124703 -0.12167475 -0.062339343 -0.13333029 -0.04639757 -0.12221896 0.0400303 -0.08635388
-0.072767705 -0.1904252 -0.08237709 0.12363106 0.052027162 -0.11224179 -0.071808495 -0.040654037
-0.13150972 -0.041036133 0.12650903 -0.12049086 0.13637365 0.14045532 -0.03308422 -0.08600702
0.080799736 -0.08702466 -0.005438021 -0.03122109 0.14966786 -0.056518327 0.078428976 -0.13965216
0.118240125 -0.27130666 -0.07161826 -0.04789492 0.0142678 -0.19166277 -0.097146526 -0.025946835
-0.12384838 -0.1469835
00000000: 2606 8bbc 0fc4 c43d a4cb 723e 81fe 983e
00000010: 01f8 b8bd f6b6 8d3d bd4f febc 4b5f 42bd
00000020: 427a 943c 9c30 f9bd 8a57 7fbd bc87 08be
00000030: 610b 3ebd ef4d fabd d0f6 233d 4eda b0bd
00000040: 3c07 95bd d3fe 42be 52b5 a8bd 4832 fd3d
00000050: 6f1a 553d 06df e5bd 5510 93bd d984 26bd
00000060: 7caa 06be 8115 28bd 958b 013e e9c3 f6bd
00000070: 89a5 0b3e 85d3 0f3e 5283 07bd 7324 b0bd
00000080: 557a a53d fc39 b2bd 6d31 b2bb 5fc3 ffbc
00000090: 8842 193e c37f 67bd 5f9f a03d fa00 0fbe
000000a0: e127 f23d b5e8 8abe 98ac 92bd 772d 44bd
000000b0: 7ec3 693c 3f43 44be c2f4 c6bd 758e d4bc
000000c0: 38a4 fdbd d882 16be

network.4.weight f4 [50, 50]
0.066065766 -0.12294433 -0.2529044 0.0047804075 0.21390808 -0.06320429 0.03862411 -0.03824855
0.14114514 -0.002653086 0.084499136 -0.18461455 -0.18402863 0.06952947 -0.052766275 0.020803073
0.16551651 0.15662463 -0.1300419 -0.17493643 0.25092122 0.058195468 -0.0026205298 0.1849758
-0.09858044 0.15213424 0.112336025 0.31771517 -0.20437244 0.05385693 -0.12370272 0.056600474
0.05020256 0.06697378 -0.19647324 -0.22298503 -0.16223897 -0.24585183 -0.300513 0.028625522
-0.42884108 -0.040646404 0.11552649 -0.2807212 0.2712064 -0.21892689 -0.08233137 0.17084993
0.25449052 0.286678 0.29874817 0.08465336 -0.061049946 0.1193347 0.09737818 0.28327677
0.09549564 0.13412623 -0.21411416 -0.22917436 0.16146463 -0.21760146 0.20185223 -0.06095658
-0.287065 -0.22150892 -0.25510916 0.018519204 0.15134922 -0.117410004 -0.05855732 -0.0525651
0.09598881 0.27633473 0.026965268 0.14151545 -0.31565422 -0.028832052 -0.18096551 -0.07851562
-0.20931207 0.13293007 0.16936573 -0.01845762 -0.025347956 -0.17216684 -0.015457056 -0.37459308
0.13931999 -0.026048645 0.0498688 0.038773764 0.04716061 -0.074077666 0.11918518 -0.2820404
0.14285862 0.19629653 0.13862354 0.007188034 0.044031356 -0.00771913 -0.14370379 0.022105709
0.12184558 0.06673104 0.022969468 0.11197553 -0.11086323 0.04867341 0.17348549 -0.05920675
0.23463257 0.0067907027 -0.089396715 -0.044393484 -0.12090057 0.008300618 0.07641319 -0.06958852
-0.10817735 0.010483597 -0.22852413 -0.010771151 -0.0360301 -0.18036118 -0.07600695 -0.19077021
0.100065924 -0.28210416 0.08233789 -0.025787668 0.09886542 -0.025155671 0.14742088 0.022070087
0.055697534 -0.024106279 0.059908133 -0.029139623 0.20223644 -0.16809954 -0.076918565 0.14006615
-0.19972414 0.09530318 -0.027425198 -0.010357759 -0.003782901 -0.027066097 0.094463475 0.08843999
-0.024374472 0.00977858 0.041707627 0.010574059 -0.06386986 -0.0005538357 -0.041153293 0.0716373
-0.09489469 0.01865456 0.13591519 -0.015516364 0.07582603 0.1531812 0.044639334 -0.1119183
0.12805562 0.12643781 -0.01572275 0.0007998877 0.14006989 0.08945463 -0.09064421 0.032327913
-0.056076616 -0.0386223 -0.002155454 -0.08813789 0.10196029 0.10879071 -0.07679045 -0.13844685
-0.1144384 -0.14166903 -0.10282529 0.18657275 -0.026102016 -0.073547155 -0.11645061 0.16237214
0.038370866 0.09922107 -0.055467837 -0.0501725 0.11649514 -0.087139994 0.07773535 -0.08960218
0.25982833 -0.082005255 0.07704457 -0.061215162 0.052018445 0.18089695 -0.049394626 0.055297256
-0.15539226 -0.060883835 0.24141468 0.18885209 -0.05323833 -0.27354506 -0.05477463 -0.14399588
-0.28269398 -0.0045006783 -0.057797935 -0.14028238 0.009024575 -0.20911948 -0.19062032 0.09852116
-0.094554834 -0.009398108 -0.18375205 0.09111585 0.050790433 -0.04947716 -0.18019451 0.13165958
-0.0067444392 -0.04861329 0.23868152 0.011360363 0.1391362 0.08502896 0.16988191 -0.020473776
0.039909203 -0.2999494 -0.055305764 0.23349813 -0.1074829 0.0678976 0.02122002 0.037968505
0.13974492 -0.098514274 0.026403192 0.09809255 0.027868507 0.31012958 -0.07906071 0.17111059
00000000: 7d4d 873d 3dca fbbd af7c 81be f7a4 9c3b
00000010: b80a 5b3e 4071 81bd 5134 1e3d 83aa 1cbd
00000020: 5a88 103e 66df 2dbb e20d ad3d 990b 3dbe
00000030: 0072 3cbe 7765 8e3d 7321 58bd 356b aa3c
00000040: 297d 293e 3562 203e b429 05be 8922 33be
00000050: bf78 803e 5f5e 6e3d 32bd 2bbb 4c6a 3d3e
00000060: 8be4 c9bd 14c9 1b3e 6e10 e63d 90ab a23e
00000070: 0247 51be 1699 5c3d da57 fdbd e6d5 673d
00000080: 33a1 4d3d 8d29 893d 4830 49be 3056 64be
00000090: f921 26be 95c0 7bbe d7dc 99be 1280 ea3c
000000a0: 0f91 dbbe d87c 26bd 2799 ec3d b0ba 8fbe
000000b0: 91db 8a3e 5f2e 60be 599d a8bd 49f3 2e3e
000000c0: 954c 823e 75c7 923e 85f5 983e be5e ad3d
000000d0: 820f 7abd c065 f43d 366e c73d a709 913e
000000e0: 3893 c33d 6358 093e be40 5bbe afac 6abe
000000f0: fc56 253e ebd2 5ebe 5ab2 4e3e 9bad 79bd
00000100: 2ffa 92be 3cd3 62be ab9d 82be 96b5 973c
00000110: 4afb 1a3e a874 f0bd cdd9 6fbd 814e 57bd
00000120: c895 c43d bf7b 8d3e 44e6 dc3c 6de9 103e
00000130: 6e9d a1be 3231 ecbc 064f 39be cccc a0bd
00000140: e755 56be d21e 083e 366e 2d3e 6f34 97bc
00000150: 84a6 cfbc 814c 30be 983f 7dbc aaca bfbe
00000160: e6a9 0e3e f863 d5bc 3a43 4c3d 3dd1 1e3d
00000170: 7c2b 413d 08b6 97bd 5c17 f43d 9967 90be
00000180: 8849 123e f501 493e 54f3 0d3e 9989 eb3b
00000190: 395a 343d c1f0 fcbb 1627 13be 0817 b53c
000001a0: 2d8a f93d 49aa 883d 772a bc3c 6d53 e53d
000001b0: 430c e3bd c55d 473d 2ea6 313e c782 72bd
000001c0: 8543 703e 8b84 de3b a015 b7bd f1d5 35bd
000001d0: b89a f7bd 51ff 073c 857e 9c3d 6d84 8ebd
000001e0: 168c ddbd 65c3 2b3c 3b02 6abe 7b79 30bc
000001f0: 4c94 13bd 9ab0 38be 88a9 9bbd 4459 43be
00000200: 5def cc3d f56f 90be c5a0 a83d a940 d3bc
00000210: f479 ca3d 4413 cebc 80f5 163e 54cc b43c
00000220: 1923 643d 887a c5bc 3b62 753d 38b6 eebc
00000230: 1217 4f3e 4922 2cbe 7b87 9dbd 806d 0f3e
00000240: 7c84 4cbe 502e c33d cfaa e0bc 97b3 29bc
00000250: 8cea 77bb b8b9 ddbc 1176 c13d 0720 b53d
00000260: f9ac c7bc 5636 203c 9ed5 2a3d d13e 2d3c
00000270: 33ce 82bd 492f 11ba 5b90 28bd 94b6 923d
00000280: 2658 c2bd 73d1 983c 5a2d 0b3e 5938 7ebc
00000290: ad4a 9b3d 88db 1c3e bcd7 363d 6c35 e5bd
000002a0: 0321 033e ea78 013e ffcc 80bc 8eaf 513a
000002b0: 7b6e 0f3e fd33 b73d aca3 b9bd 466a 043d
000002c0: 98b0 65bd 6b32 1ebd 8442 0dbb a381 b4bd
000002d0: 8ed0 d03d aacd de3d 5044 9dbd 03c5 0dbe
000002e0: ae5e eabd b011 11be 1196 d2bd ed0c 3f3e
000002f0: e5d3 d5bc e49f 96bd a87d eebd e244 263e
00000300: c52a 1d3d 6b34 cb3d 3e32 63bd ae81 4dbd
00000310: 0195 ee3d 7476 b2bd b633 9f3d 5981 b7bd
00000320: 3808 853e 5ff2 a7bd 8bc9 9d3d c0bc 7abd
00000330: 4b11 553d 0d3d 393e 0552 4abd 607f 623d
00000340: 261f 1fbe 5461 79bd 6935 773e 7162 413e
00000350: 6f10 5abd 190e 8cbe 5d5b 60bd a873 13be
00000360: 44bd 90be 6d7a 93bb 87bd 6cbd 2fa6 0fbe
00000370: d0db 133c 6b23 56be f931 43be 76c5 c93d
00000380: f7a5 c1bd 86fa 19bc 7f29 3cbe f29a ba3d
00000390: a109 503d 90a8 4abd e984 38be c5d1 063e
000003a0: 7500 ddbb bb1e 47bd ee68 743e d120 3a3c
000003b0: b879 0e3e aa23 ae3d 86f5 2d3e 9fb8 a7bc
000003c0: d577 233d f892 99be 4c88 62bd 221a 6f3e
000003d0: ff1f dcbd e60d 8b3d 9bd5 ad3c dd84 1b3d
000003e0: 4b19 0f3e dac1 c9bd 824b d83c bfe4 c83d
000003f0: 7f4c e43c 4ec9 9e3e 95ea a1bd 9d37 2f3e

network.4.bias f4 [50]
0.026028762 0.11742664 0.10864927 -0.17692097 -0.052327935 0.15553474 0.10855961 -0.012646189
-0.07080479 0.07531319 0.0064220564 -0.033825833 -0.06555824 -0.053367767 -0.03439069 -0.03232183
-0.14754185 -0.06058017 0.18181297 0.12490277 -0.09324902 0.029504532 0.15890002 -0.03715916
0.0058302986 0.2663983 0.0018360164 -0.13195913 0.08963072 -0.09085739 -0.04758189 -0.004078247
0.15588851 -0.1110286 -0.19003011 -0.19209942 0.12420675 0.013912957 -0.17611428 -0.116754435
0.15757737 0.15746498 -0.061425272 0.10638894 -0.078967385 -0.12742044 -0.10674747 -0.12605897
0.032951824 0.06645772
00000000: 453a d53c 617d f03d 8283 de3d c52a 35be
00000010: d155 56bd 8044 1f3e 8054 de3d f631 4fbc
00000020: 1a02 91bd cd3d 9a3d 1d70 d23b f58c 0abd
00000030: 6643 86bd 2998 5abd 41dd 0cbd e563 04bd
00000040: 3615 17be ea22 78bd 2e2d 3a3e 06cd ff3d
00000050: 58f9 bebd 7db3 f13c b0b6 223e 3434 18bd
00000060: 170c bf3b 5c65 883e 7da6 f03a 4b20 07be
00000070: 5090 b73d 7013 babd 3ae5 42bd d1a2 85bb
00000080: 3da1 1f3e f662 e3bd 4197 42be b6b5 44be
00000090: 1c60 fe3d 2cf3 633c 4d57 34be f31c efbd
000000a0: f65b 213e 803e 213e 1199 7bbd 72e2 d93d
000000b0: a7b9 a1bd 817a 02be 6b9e dabd 9a15 01be
000000c0: 7ef8 063d fc1a 883d

network.6.weight f4 [50, 50]
0.13204929 0.12946036 0.107554406 0.12415979 -0.019765168 -0.00191601 0.0827624 -0.13696335
-0.14279744 -0.101638734 -0.22396532 -0.016725557 -0.033700537 0.07978714 -0.0044177873 -0.10597843
-0.04299966 0.042768482 0.027857272 -0.19294319 -0.038477488 -0.004546936 0.122101456 -0.029409815
-0.16742788 0.09831387 0.037794173 -0.13727488 0.021106515 -0.06426636 -0.1676734 0.063315034
0.16096115 0.071491875 0.06148219 0.14893967 -0.11773958 0.139664 0.08011102 -0.10050367
0.094257906 -0.024495123 -0.113114715 -0.047248665 -0.05927451 0.07173918 -0.096869834 0.14300257
-0.013034176 -0.008131989 0.0504022 -0.09279935 -0.0825069 -0.079431444 -0.121463574 -0.026957007
0.120371446 0.052861646 0.061441522 -0.24820487 0.10305644 0.16058733 -0.0077095837 0.066124685
-0.02262299 0.12625016 0.21804233 0.11488231 0.034137767 -0.1261702 0.12945606 -0.14811191
-0.19912805 -0.08500528 -0.055350274 -0.03941792 -0.07034257 0.16606925 -0.3001903 -0.02410239
0.03899709 -0.054414578 -0.15899391 0.088373 -0.042230878 0.118276946 0.10020732 -0.02354235
-0.00030315976 -0.005498493 0.024003962 0.036566116 -0.059645943 0.0022554703 -0.005318681 0.19576894
-0.108465865 0.15570587 0.10980154 -0.07108991 -0.07550724 -0.28247207 -0.014475568 0.007101625
0.22573197 -0.25231355 -0.11499852 -0.17341776 -0.045511093 -0.2801059 0.1387573 -0.26436612
0.19794492 0.118056454 -0.20830368 -0.05662901 0.033908304 0.20887849 -0.17164193 0.124805786
0.5402634 0.068174325 0.038144253 0.119891874 -0.1873898 -0.038036536 -0.10134346 -0.16022234
-0.29391322 -0.3269235 -0.270588 -0.13327129 -0.00016810249 0.1858574 0.2726992 0.109494835
-0.18026784 -0.0012811676 0.21007518 0.046988513 0.08913782 -0.20562302 0.26897714 0.18598367
0.033742126 -0.16917609 -0.22928882 -0.35053647 0.10198592 -0.026047243 0.201569 -0.15284318
-0.02208829 0.058367316 0.08560676 -0.1833071 -0.024649613 0.0055211224 0.16784212 0.25855044
0.21227281 -0.12713471 0.017667957 0.070115246 0.096315265 0.1643842 -0.25802338 -0.11455745
-0.052477654 0.0065547796 0.09830119 0.1582897 0.09303108 -0.040158395 0.03759745 -0.0020871435
0.12299998 0.033574376 -0.021193983 -0.13664208 0.049603358 -0.12677401 -0.04084655 0.041235443
-0.022911431 0.06161055 0.09770921 0.0879988 0.13653515 0.018720647 0.1328171 0.012718165
0.06950505 0.042283226 -0.12609924 -0.08548499 0.018319717 -0.0037875292 -0.028257955 0.24165355
-0.23889998 -0.26518157 0.021383703 0.075446166 0.096022025 0.006564871 0.18830402 0.0075894133
0.14070843 0.024964387 0.04016088 -0.09568817 -0.048812475 -0.18286854 0.148478 -0.036649853
0.01939292 -0.032001376 -0.13775615 0.13121934 0.08174455 0.09694614 -0.01373097 0.06628854
0.020806078 -0.14209394 -0.077393815 -0.015294565 -0.045691814 -0.15942511 -0.03149188 0.010976495
0.0017278405 0.07289909 -0.020777542 -0.12753735 -0.21530545 0.05072871 0.051970907 -0.033560444
0.012318794 0.027298102 -0.1337307 -0.07157988 -0.12223109 0.116896905 0.07092491 0.17801195
0.06830645 -0.042542625 0.07871916 -0.15258622 -0.03812722 -0.08242919 -0.07514162 0.045466516
00000000: ee37 073e 4291 043e 7c45 dc3d 7d47 fe3d
00000010: 90ea a1bc a122 fbba 557f a93d 1f40 0cbe
00000020: 7e39 12be f827 d0bd 2a57 65be 0904 89bc
00000030: 9309 0abd 7167 a33d 16c3 90bb 380b d9bd
00000040: 6920 30bd 012e 2f3d ef34 e43c e692 45be
00000050: 929a 1dbd 77fe 94bb 5410 fa3d daec f0bc
00000060: 3772 2bbe c858 c93d 10ce 1a3d c991 0cbe
00000070: 92e7 ac3c 159e 83bd 93b2 2bbe 50ab 813d
00000080: 00d3 243e 556a 923d c0d4 7b3d a483 183e
00000090: 7321 f1bd 1404 0f3e 3f11 a43d ded4 cdbd
000000a0: 4a0a c13d ffa9 c8bc b0a8 e7bd d187 41bd
000000b0: d4c9 72bd feeb 923d b163 c6bd 446f 123e
000000c0: 4c8d 55bc 093c 05bc 8a72 4e3d 960d bebd
000000d0: 61f9 a8bd f4ac a2bd e5c1 f8bd f1d4 dcbc
000000e0: 4e85 f63d 7485 583d 1baa 7b3d 6b29 7ebe
000000f0: 410f d33d 0171 243e ada0 fcbb 616c 873d
00000100: d953 b9bc b947 013e 7d46 5f3e 6b47 eb3d
00000110: 0bd4 0b3d c332 01be 2190 043e a6aa 17be
00000120: 39e8 4bbe 4017 aebd f8b6 62bd af74 21bd
00000130: c40f 90bd 0f0e 2a3e 8bb2 99be 6072 c5bc
00000140: 6abb 1f3d d2e1 5ebd 4dcf 22be e7fc b43d
00000150: 49fa 2cbd 2f3b f23d 7f39 cd3d e3db c0bc
00000160: 6af1 9eb9 b42c b4bb f5a3 c43c 5ac6 153d
00000170: 4e4f 74bd 83d0 133b 5448 aebb a777 483e
00000180: 5a23 debd 5c71 1f3e a1df e03d 9697 91bd
00000190: 8aa3 9abd 2ea0 90be ef2a 6dbc c0b4 e83b
000001a0: 4826 673e 3e2f 81be 5884 ebbd 6d94 31be
000001b0: d769 3abd 0a6a 8fbe 6516 0e3e ff5a 87be
000001c0: 13b2 4a3e 95c7 f13d 8f4d 55be d2f3 67bd
000001d0: 6fe3 0a3d 3ee4 553e e7c2 2fbe 2d9a ff3d
000001e0: b44e 0a3f fb9e 8b3d 263d 1c3d df89 f53d
000001f0: 1de3 3fbe 33cc 1bbd 298d cfbd 5311 24be
00000200: cb7b 96be 8462 a7be 838a 8abe 4578 08be
00000210: ab44 30b9 6751 3e3e 3b9f 8b3e d43e e03d
00000220: 2298 38be daec a7ba f31d 573e 0777 403d
00000230: e48d b63d d78e 52be 5fb7 893e 8172 3e3e
00000240: 2f35 0a3d 7f3c 2dbe b0ca 6abe 8479 b3be
00000250: fedd d03d 0761 d5bc 1b68 4e3e ec82 1cbe
00000260: 80f2 b4bc 9112 6f3d 9952 af3d dbb4 3bbe
00000270: fced c9bc 88ea b43b cede 2b3e b960 843e
00000280: 0b5e 593e 9a2f 02be 64bc 903c 9598 8f3d
00000290: f040 c53d 5554 283e a41b 84be 199d eabd
000002a0: cff2 56bd 7ac9 d63b 2252 c93d b216 223e
000002b0: 1487 be3d 217d 24bd c9ff 193d 75c8 08bb
000002c0: 6ae7 fb3d 4985 093d 019f adbc e7eb 0bbe
000002d0: e42c 4b3d 0cd1 01be b64e 27bd 7fe6 283d
000002e0: c1b0 bbbc 585b 7c3d c41b c83d b738 b43d
000002f0: dfcf 0b3e 0b5c 993c 3501 083e da5f 503c
00000300: aa58 8e3d 2d31 2d3d 2920 01be c112 afbd
00000310: 3b13 963c 3238 78bb 3a7d e7bc 0774 773e
00000320: 32a2 74be e1c5 87be e02c af3c 8583 9a3d
00000330: 32a7 c43d 211e d73b c5d2 403e 9db0 f83b
00000340: df15 103e 1d82 cc3c bc7f 243d 29f8 c3bd
00000350: 97ef 47bd e441 3bbe 9e0a 183e 281e 16bd
00000360: e7dd 9e3c e013 03bd f30f 0dbe 5d5e 063e
00000370: b069 a73d b38b c63d ddf7 60bc 49c2 873d
00000380: 8271 aa3c 1381 11be a680 9ebd 0e96 7abc
00000390: 5727 3bbd 5640 23be a1fd 00bd c2d6 333c
000003a0: b578 e23a 1e4c 953d aa35 aabc 2799 02be
000003b0: 0879 5cbe e8c8 4f3d 72df 543d ad76 09bd
000003c0: c4d4 493c 45a0 df3c b3f0 08be 7998 92bd
000003d0: 4b54 fabd a567 ef3d 1441 913d c448 363e
000003e0: 41e4 8b3d 2d41 2ebd 8337 a13d 903f 1cbe
000003f0: 4a2b 1cbd a3d0 a8bd dae3 99bd 193b 3a3d

network.6.bias f4 [50]
0.08959852 -0.18815699 -0.08489508 0.023894679 -0.09727829 0.010122041 0.09870075 -0.2736431
0.15806915 -0.008235464 -0.09010782 0.09160984 -0.20595188 -0.0855599 -0.02325974 -0.025517771
-0.06790365 -0.038469166 0.003869751 0.11435675 0.12041804 0.1714961 -0.0751006 0.06757804
0.087277755 0.10684719 -0.014618309 0.14941941 0.030436255 -0.15349814 0.071611114 0.15172008
0.14930032 -0.027625177 0.09493157 -0.08332608 0.049059417 0.12635049 0.101839975 -0.06979632
0.002046631 -0.10665888 0.016577544 0.044510517 -0.03615946 -0.13835777 -0.10658276 0.06440534
-0.18479542 -0.018239332
00000000: 6e7f b73d 3aac 40be 79dd adbd c6be c33c
00000010: d739 c7bd ebd6 253c 9e23 ca3d f31a 8cbe
00000020: e1dc 213e 0aee 06bc 738a b8bd f19d bb3d
00000030: 0de5 52be 073a afbd 368b bebc a50a d1bc
00000040: 1211 8bbd d891 1dbd a69b 7d3b df33 ea3d
00000050: bc9d f63d ac9c 2f3e 58ce 99bd 5b66 8a3d
00000060: aebe b23d b3d2 da3d a281 6fbc 6701 193e
00000070: 7455 f93c 9e2e 1dbe d9a8 923d 825c 1b3e
00000080: 2fe2 183e 324e e2bc 7c6b c23d dda6 aabd
00000090: 87f2 483d 0662 013e 7a91 d03d 5ff1 8ebd
000000a0: c520 063b f96f dabd a1cd 873c a950 363d
000000b0: f11b 14bd a9ad 0dbe 1048 dabd f2e6 833d
000000c0: 033b 3dbe a76a 95bc

network.8.weight f4 [4, 50]
-0.053255264 -0.0048476146 -0.24377848 0.25225902 0.04416953 0.0010611424 0.19963792 0.25688732
-0.13712324 0.040464845 0.1265186 0.17046137 0.075100526 0.0072516315 -0.012226003 0.017248742
0.18030028 0.0914919 0.17202373 -0.004814435 -0.025454653 -0.13059145 0.031846233 0.021762792
-0.14614238 0.052446734 0.09148851 -0.1376587 0.026409732 -0.063874654 -0.228116 0.13328212
-0.06229 0.10451982 -0.10446609 0.10603461 0.13300787 0.22798362 -0.24005382 0.06273254
-0.1700192 0.1763065 0.111505024 0.18666862 -0.02229217 -0.03457057 -0.10807769 0.0027735906
-0.31501958 0.113815 -0.0401168 0.022218816 0.28221646 -0.2078101 0.05648308 0.1451808
-0.2293886 -0.013308305 0.14193687 0.20492896 0.11060699 0.023845773 0.027957307 0.02962067
0.1537967 0.10240016 -0.13597761 0.09213956 0.20490512 -0.049517095 0.017169774 -0.0041171317
-0.09346651 0.061151534 0.15918459 -0.06670415 -0.1947847 0.123691976 -0.08360517 0.071527384
-0.26673573 0.049896706 -0.11811582 -0.031054499 -0.15371606 -0.014328716 -0.19153117 -0.09579221
-0.09799678 0.037263382 -0.011170935 0.24947374 -0.025960432 0.14026119 -0.14386225 0.122325115
-0.23991255 0.016981535 -0.2579811 0.15616426 0.012242026 -0.1837047 0.07429135 0.05904795
-0.09987339 -0.034389216 -0.04000597 -0.049242605 0.12619972 -0.10597347 -0.2704505 0.05283227
-0.27164862 -0.14377972 0.048124846 0.16920431 0.060242556 -0.12326012 0.096623756 0.21157941
0.18115833 0.0994817 0.17644055 0.1628055 -0.0931703 0.25939566 0.03798459 0.089077614
0.18882158 0.15536785 0.004598635 -0.16273002 0.13950285 0.03389641 0.21951222 0.23559847
-0.08874429 0.07152627 -0.021535149 0.04998127 -0.027824007 0.0011159175 -0.1281258 0.013891131
0.09524338 -0.093982674 -0.15465215 -0.035624683 0.007026297 0.09839273 -0.05967473 -0.114861205
0.004360652 0.030073768 -0.061594933 0.106737845 -0.02170227 -0.022295384 -0.018405164 -0.124877356
-0.044019777 -0.010267962 -0.01089795 -0.12737504 -0.011066413 0.032722674 0.09173502 0.1279097
0.044906233 -0.19554698 0.051378243 -0.04764526 0.006410509 0.07189897 -0.02797291 -0.02849776
0.010558278 0.018271228 0.1580478 -0.013740087 0.015205271 -0.005432419 -0.107098214 -0.18171406
-0.022662262 -0.2291362 -0.04329614 0.029679094 -0.0218918 -0.21382396 0.02920093 0.16022043
0.0076676197 0.01692397 0.11918206 -0.068029284 0.04734219 0.31387427 0.010992102 0.074444205
00000000: 3122 5abd bdd8 9ebb 11a1 79be 1828 813e
00000010: 1ceb 343d 0816 8b3a e26d 4c3e bc86 833e
00000020: 096a 0cbe 77be 253d 188e 013e 6d8d 2e3e
00000030: 4ece 993d 189f ed3b 934f 48bc 3c4d 8d3c
00000040: a3a0 383e 1b60 bb3d fd26 303e 68c2 9dbb
00000050: 4786 d0bc c4b9 05be 3271 023d e247 b23c
00000060: 59a6 15be 63d2 563d 545e bb3d 67f6 0cbe
00000070: 3959 d83c b7d0 82bd 3e97 69be 1c7b 083e
00000080: cd23 7fbd 7d0e d63d 51f2 d5bd ac28 d93d
00000090: 3733 083e 8a74 693e abd0 75be eb79 803d
000000a0: 8319 2ebe b189 343e bf5c e43d 0f26 3f3e
000000b0: 129e b6bc df99 0dbd d657 ddbd 21c5 353b
000000c0: 3f4a a1be d717 e93d 8451 24bd 3c04 b63c
000000d0: ad7e 903e 2ccc 54be cd5a 673d 47aa 143e
000000e0: d8e4 6abe 140b 5abc e657 113e e6d8 513e
000000f0: eb85 e23d 3658 c33c b906 e53c 0ca7 f23c
00000100: e27c 1d3e 2db7 d13d b73d 0bbe aab3 bc3d
00000110: a6d2 513e 70d2 4abd a0a7 8c3c 01e9 86bb
00000120: 5f6b bfbd 087a 7a3d 4901 233e 2f9c 88bd
00000130: a475 47be 3852 fd3d 3039 abbd f37c 923d
00000140: 9691 88be 7d60 4c3d b5e6 f1bd 0166 febc
00000150: be67 1dbe fec2 6abc bf20 44be b52e c4bd
00000160: 89b2 c8bd 7da1 183d 4c06 37bc 0b76 7f3e
00000170: f9aa d4bc a1a0 0f3e a050 13be 9785 fa3d
00000180: a3ab 75be dc1c 8b3c 1916 84be 86e9 1f3e
00000190: c792 483c 161d 3cbe 1026 983d 43dc 713d
000001a0: 6b8a ccbd b5db 0cbd 4ddd 23bd 9db2 49bd
000001b0: 803a 013e 9e08 d9bd 7d78 8abe a666 583d
000001c0: 8715 8bbe fe3a 13be 8f1e 453d e543 2d3e
000001d0: e6c0 763d cd6f fcbd ade2 c53d 46a8 583e
000001e0: 9281 393e 10bd cb3d d5ac 343e 7cb6 263e
000001f0: 12d0 bebd 82cf 843e bb95 1b3d 536e b63d
00000200: 725a 413e c018 1f3e 25b0 963b b3a2 26be
00000210: d6d9 0e3e f6d6 0a3d d0c7 603e ba40 713e
00000220: 91bf b5bd 5d7c 923d 7b6a b0bc 29b9 4c3d
00000230: 2cef e3bc fa43 923a 6933 03be a097 633c
00000240: f60e c33d fd79 c0bd 225d 1ebe 30eb 11bd
00000250: da3c e63b 2182 c93d 7d6d 74bd 5a3c ebbd
00000260: cde3 8e3b 435d f63c f84a 7cbd 5f99 da3d
00000270: f5c8 b1bc cfa4 b6bc 6dc6 96bc b3bf ffbd
00000280: 154e 34bd f43a 28bc 518d 32bc 9a6e 02be
00000290: e64f 35bc 3608 063d 92df bb3d c3fa 023e
000002a0: 99ef 373d 783d 48be fe71 523d ad27 43bd
000002b0: 3f0f d23b c43f 933d 7227 e5bc 2274 e9bc
000002c0: a1fc 2c3c 8bad 953c 48d7 213e 1a1e 61bc
000002d0: 871f 793c 6f02 b2bb 4f56 dbbd 4013 3abe
000002e0: 35a6 b9bc aea2 6abe 4b57 31bd 9221 f33c
000002f0: 6f56 b3bc abf4 5abe ca36 ef3c d310 243e
00000300: a840 fb3b 23a4 8a3c b915 f43d f052 8bbd
00000310: e2e9 413d 21b4 a03e 3818 343c 3476 983d

network.8.bias f4 [4]
0.12041659 0.063080944 -0.031410065 0.09094485
00000000: f99c f63d 9530 813d d7a7 00bd 4b41 ba3d
